model_params_6.npz (npz, 876538 bytes, 6 tensors)

w_1 f8 [128, 784]
0	0x3f6eaeacf3ad35a9	0.003745401188473625
1	0x3f83787b244f417e	0.009507143064099163
2	0x3f7dfb83468d510c	0.007319939418114051
3	0x3f788563a1c69f9a	0.005986584841970366
4	0x3f598fe5654a6857	0.0015601864044243652
5	0x3f598ee268728e76	0.0015599452033620265
6	0x3f43086812cf92d7	0.0005808361216819946
7	0x3f81bd41f17e8a0e	0.008661761457749353
8	0x3f789f25d2a6c744	0.006011150117432088
9	0x3f7d00adda5f5f5f	0.007080725777960455
10	0x3f2afb02989a3b85	0.00020584494295802447
11	0x3f83dd1ef79bbaa7	0.009699098521619943
12	0x3f811f747866b61b	0.008360776829103014
13	0x3f62467e3bd3a9fe	0.0022308793546603747
14	0x3f5e4c7ba3039f2c	0.0018492896452304104
15	0x3f5e11f7a260d56f	0.0018353384307493133
16	0x3f68ec6c1abe4ac3	0.0030424224295953774
17	0x3f757e7851f4c82d	0.005247564316322379
18	0x3f71b14594991bbf	0.004319450186421158
19	0x3f67db848a7e62a1	0.002912291401980419
20	0x3f790fbe1ba5b4ad	0.006118528947223795
21	0x3f56dacbec79c84d	0.0013949386065204184
22	0x3f67eeb7a3923ddc	0.0029214464853521815
23	0x3f6e032a2b57f4c3	0.003663618432936917
24	0x3f72ae3d8ab4331c	0.004560699842170359
25	0x3f8014955610253c	0.007851759613930136
26	0x3f605b76748e70ee	0.0019967378215835973
27	0x3f7510238f462e2d	0.005142344384136116
28	0x3f7843eabfd46f7a	0.005924145688620425
29	0x3f3e711609019e00	0.00046450412719997725
30	0x3f78e291cb29c5d0	0.006075448519014384
31	0x3f5bf04cd606b6a9	0.0017052412368729153
32	0x3f4550ec52769cf6	0.0006505159298527952
33	0x3f836ee49c0314d3	0.009488855372533333
34	0x3f84307db833faee	0.009858114417963883
35	0x3f81e09b788e2a57	0.008729185692364512
36	0x3f74d5d8f7edd83d	0.005086753399941965
37	0x3f6626d474b221bf	0.00270406241685725
38	0x3f82805d0456a4c4	0.009033896155261074
39	0x3f805893f3c669b9	0.007981449009822993
40	0x3f716003b8469bd8	0.004241957216811941
41	0x3f7dec2dc9cc08d1	0.007305315838268282
42	0x3f5ef17fefb4b0f7	0.001888632715075165
43	0x3f852ae6b9eeb6e0	0.010335733937462732
44	0x3f6a4e2d49413afb	0.0032111057753704242
45	0x3f801deca74d2899	0.007869576316484038
46	0x3f6eb72237d8dd8c	0.0037494343112276004
47	0x3f766582ae37e447	0.005467901678906157
48	0x3f773a6b1b33c5a7	0.005670946487258111
49	0x3f5f5e1d42b32d3a	0.0019145284411930656
50	0x3f85a4fa44c61025	0.010568576072508115
51	0x3f82571f249c242c	0.008955233864542299
52	0x3f833dae224aa54a	0.009394989415641892
53	0x3f825378f073c670	0.008948273504276488
54	0x3f787d6f88d7f84e	0.005978999788110851
55	0x3f82e146a73c66da	0.009218742350231169
56	0x3f4cff4a02e2a89a	0.000884925020519195
57	0x3f600e0efb17e54f	0.001959828624191452
58	0x3f3da3e1447fcc52	0.00045227288910538066
59	0x3f6aae8b0a7051e7	0.0032570567741549874
60	0x3f7026c9a1aee551	0.0039432407601734535
61	0x3f66b9267a8d0434	0.0027738334214580055
62	0x3f7b5660895b3bfb	0.006674172492878046
63	0x3f78b0884de499b3	0.006027729452659991
64	0x3f8862e4d73207de	0.011907375161403107
65	0x3f90e7c325f925ab	0.01650910300512513
66	0x3f908a35be4e81b3	0.01615222906150544
67	0x3f9fe3eb41d0769a	0.031142879383074452
68	0x3f935acaeb74fe2b	0.018901033993868815
69	0x3f9f0d18933271ba	0.030323394760317625
70	0x3fa4fe824ed7d2ea	0.04100424969138834
71	0x3fa48e430d2f89dd	0.04014787231405468
72	0x3f9a569668f07b8a	0.02572093024729897
73	0x3fa02290dd770362	0.031513716730393396
74	0x3fa137ef26a747ba	0.03362986895412186
75	0x3f962b10441b750d	0.02164864936536497
76	0x3f90cdba188c8a30	0.016409785984374092
77	0x3f718f97561bd0fd	0.004287329824127048
78	0x3f78f7c3e76cbd40	0.006095662355434073
79	0x3f6326354d957cbb	0.002337555034202047
80	0x3f744ca56e759ac2	0.0049559080283418395
81	0x3f6f55594197938a	0.0038248770986108504
82	0x3f6b1b6f3e6ac07b	0.003308980248526492
83	0x3f44d3a92de8a18f	0.0006355835028602363
84	0x3f6979c5a072ed5c	0.003109823217156622
85	0x3f6aa396aaa8b729	0.0032518332202674705
86	0x3f7de14e0a40c782	0.007294945568036117
87	0x3f7a37413bbeaac7	0.006400351350672912
88	0x3f823da485862fa3	0.0089066365478841
89	0x3f78616de5fc587f	0.0059522908120667175
90	0x3f7d66cdd9d1f7f6	0.00717811975948556
91	0x3f967e4478058800	0.021966047120606902
92	0x3f9c650cbe880647	0.02772922432814642
93	0x3f980206f5a780c7	0.023445233100461118
94	0x3fa1ceb5b2e2574b	0.03478019531864492
95	0x3fa7a1d9145b29a1	0.04615667699325177
96	0x3fa959bf94364f6d	0.049512850611022376
97	0x3fa658205865216c	0.04364110068360358
98	0x3fa142481aaea5e9	0.033708813912493536
99	0x3fad299196d96b76	0.056957769073696804
100	0x3fa721749da0942f	0.04517712043915655
101	0x3fa0bd1abbca413c	0.032692752288428356
102	0x3fa4031557bd1b5a	0.039086024246492726
103	0x3fa182e5bc691d64	0.034201792954770466
104	0x3fa03a50325cf4e9	0.03169489493164141
105	0x3f96145e9039a67e	0.021562078049476067
106	0x3f95e2682600252e	0.021371486014719547
107	0x3f9493c6c8857be7	0.020094972599846186
108	0x3f6e1ad62f619a73	0.0036749060919192777
109	0xbf504142e5ccce48	-0.0009921220109391383
110	0x3f68b5307feebf32	0.0030160853634341395
111	0x3f5a6a1c63f3b50a	0.0016122128725400441
112	0x3f830a4b10f5562f	0.00929697652342573
113	0x3f808a5858111cb7	0.008076372325503163
114	0x3f79cefb1e86144c	0.006300908026223583
115	0x3f818386cbc03b73	0.008551648228630282
116	0x3f7ddff123bf609b	0.0072936458127161
117	0x3f751f726fb7cad1	0.005156943337612589
118	0x3f8e83f6833569e9	0.014900136832399507
119	0x3f908ddbd1ebd7ac	0.016166147887780077
120	0x3f8ff4f5cadf4716	0.015603943113009982
121	0x3f99792632b9edfb	0.024876210065924536
122	0x3f9d7367b9c23495	0.028760548317724306
123	0x3f9251183dea1990	0.017887476710279737
124	0x3f933180134d112d	0.018743516138117023
125	0x3f81880365b26752	0.008560205975573307
126	0x3fa6e61756af282e	0.044724206286972254
127	0x3f961317e1d57fe7	0.021557210120022232
128	0x3fa215ccb826b763	0.035322568396948716
129	0x3f9ae34d4dbcb46c	0.02625771319360519
130	0x3f91d22010041f1e	0.01740312669519916
131	0x3f863f304ba40030	0.010862710293167849
132	0x3f85fcd8745cc936	0.010736170817470563
133	0xbf99e8018172be2a	-0.02529909470166395
134	0x3f5e91d4ae4830d4	0.0018658234558897495
135	0x3f576aba3b03eb85	0.0014292544038301002
136	0x3f731bc61c5281db	0.004665159101165685
137	0x3f7b08aa4053d58a	0.006600060504969982
138	0x3f7995a0e7bdb388	0.006246212516867973
139	0x3f83e6efd5214937	0.009717820827209607
140	0x3f83b5fee478d52c	0.009624472949421113
141	0x3f64a041e868fff6	0.0025178229582536417
142	0x3f747e59e9cb874b	0.005003310416869254
143	0x3f62c4a1f782201b	0.002291027394736756
144	0xbf6f82fe8f3b8fa2	-0.003846642672089077
145	0xbf8013a5774cc6f1	-0.007849972441906302
146	0x3f667db842c9b9c6	0.0027454947324294402
147	0x3fa04c2a3e6d4a70	0.031831092949364925
148	0xbf821d9ffaad9c96	-0.008845567548361449
149	0xbf8f7a8777ff1b52	-0.01537042460394181
150	0x3f8528c2f5f5815f	0.010331652766297493
151	0x3f9bac4f377fe9d8	0.027024495851927316
152	0x3fba6beb2c51a6b0	0.1032092078400193
153	0x3fb475b1f3af5354	0.07992088507974177
154	0x3f81180ba3602d80	0.008346644328432573
155	0xbfb71732ddaa4ae3	-0.09019773399112867
156	0xbfa8dab10d993f39	-0.048543484601962957
157	0x3f81d4046473960f	0.008705171886002309
158	0x3f7c907f51ac05d4	0.0069737409019139
159	0x3f877dd61f4263fc	0.011470482663115782
160	0x3f90c9033db36500	0.016391802445331116
161	0x3f8056c9f08e3e40	0.007978036550212342
162	0x3f719ed334b93fc3	0.004301857970474945
163	0xbf835704cfe2b548	-0.00944331893364371
164	0x3f875ac6e916875e	0.011403612125665038
165	0x3f9720a8ef261b4a	0.022585525127875962
166	0x3f85616147e95e89	0.010439643866603692
167	0x3f5ea4dfdd5bc6b6	0.0018703638247043303
168	0x3f3ab8eefea3023e	0.0004077514155476392
169	0x3f7833f62aa10037	0.005908929431882418
170	0x3f7b3a1131cd5fd6	0.006647174040004663
171	0xbf633c07951a11f8	-0.002347960290366876
172	0xbf87623e244f60e3	-0.011417851908774817
173	0xbf972f88cc4aa593	-0.022642266720742276
174	0xbf725f424ddecbaa	-0.004485377312380226
175	0x3f98ef3461b86051	0.024349993194931866
176	0x3f810839488787e7	0.008316466833040393
177	0xbf724b0a940b64d4	-0.004466096230964573
178	0x3fb056045d4efaec	0.063812516003036
179	0x3fb2b51f8e38d04e	0.07307622167792369
180	0x3fb2d8b732899e54	0.07361931785418935
181	0x3fa7ca54b2339a2c	0.04646553683578633
182	0x3f8b302116c2edc7	0.01327539301597981
183	0xbf916f3b98df3ffe	-0.017025881963320437
184	0xbfb4745ac1d8e40d	-0.07990042908285507
185	0xbf9a06f04b212a81	-0.025417093835395924
186	0xbfabc92161c3e56a	-0.054268878158789516
187	0x3f713a4d9f3abfb5	0.004205992899798551
188	0x3f8844ac143fc7aa	0.01184973179622147
189	0x3f5bd770b57e2ed3	0.001699314181652524
190	0xbf89bae10c998003	-0.012563474843034333
191	0x3f97576122aea107	0.02279426359351169
192	0x3fa8e80e6b82e197	0.04864544927972075
193	0x3fa4b07d3f61d14c	0.040409006106446016
194	0x3f92c26d63c244f0	0.01831980630283153
195	0x3f7770ee5ee54275	0.005722933898440465
196	0x3f7dbc326fdadb0e	0.007259556788702394
197	0x3f7f6c208ff9c654	0.007671477505583352
198	0x3f781ab20a5f7199	0.0058848337848441895
199	0xbf295d8a4a2e7f5a	-0.00019352257831161784
200	0x3f75b052992595b8	0.0052951075070714546
201	0x3f8037276f52bb39	0.007917697987378612
202	0x3f81c5aabf346d07	0.00867780109415729
203	0x3f8bbe3f8947ec37	0.01354646337221342
204	0x3f9d4527ea4c713b	0.028584121394588307
205	0x3f9daa48e8e7d9cd	0.028969897475656304
206	0x3fb59270f6e0608d	0.08426576640374801
207	0x3fb621d2bf08a3b8	0.08645360149297587
208	0x3faaf1cc1ec3d0f5	0.05262601733730491
209	0xbfa108ae1c8d4b43	-0.03326934908422754
210	0xbfb629a7dddf9f9f	-0.08657311598619664
211	0xbf70c8050af36aac	-0.004097003649088531
212	0xbf9afce20142ed77	-0.026355296446792544
213	0xbf93e317bd118cb2	-0.01942097751124256
214	0xbf76bd76094eaa27	-0.005551777915494805
215	0x3f90fa4dea9f6b38	0.016579835362658474
216	0xbf8f483e0b85abd7	-0.015274510122898306
217	0x3f9791513b054344	0.023015279033020933
218	0x3f88a7aa0291d90c	0.012038543895169805
219	0x3f8a0433b49e12cf	0.012703327130802048
220	0x3fa63fbb22f1e3ec	0.04345497895787517
221	0x3fa7b02eef64daa5	0.046266047213454876
222	0x3f83e68f58972474	0.009717101946892216
223	0x3f7c9f90522605b6	0.006988109353529939
224	0x3f65b9b25eb987d7	0.0026520236768172545
225	0x3f4757028a284a08	0.0007122766876953021
226	0x3f56094d616063a5	0.0013449912708038772
227	0xbf75bb6221780dd0	-0.005305655787654698
228	0x3f9ee4a8cefaada8	0.03016914141941887
229	0x3fac3cc10c4d566d	0.055151016952248756
230	0x3fa7d13f5a9c3e88	0.046518306551772304
231	0x3fa2eca655b9f31d	0.03696174427475383
232	0x3fa3e731cb091e23	0.03887324908697234
233	0x3fb0f1ec5a27d5d7	0.06619145585121743
234	0x3fc0a68c13858143	0.13008261635969562
235	0x3fb49cd36bc2a824	0.0805179727637158
236	0xbf8dfdc52eb7fe45	-0.014644184578172967
237	0xbfb24c134beef43c	-0.07147331813662644
238	0xbfbaa1584d99ec39	-0.10402442831575422
239	0xbfb158b5eff175d3	-0.067759867744335
240	0xbfb25185067b9468	-0.07155639084119658
241	0xbf86579e74c8358d	-0.010909307421594483
242	0xbfb5f1cb9b255947	-0.08572075402967015
243	0xbf991ae69a0a4d2b	-0.02451668086230289
244	0xbfa1bb57b43c124b	-0.034632435561466744
245	0x3f8c9807339bb2fa	0.013961845648247973
246	0x3f998b952fcb5b7d	0.024946528474937935
247	0x3fa0e2d554422f9e	0.03298060086771602
248	0x3fa254901a247688	0.035801413718428654
249	0x3fab634496517633	0.05349172911585889
250	0x3f9036d4b013ce95	0.015834162947568748
251	0x3f77d7359affc195	0.005820474048946163
252	0x3f8144a70b56f92e	0.008431725534020797
253	0x3f59bdf1032b021e	0.0015711644779657983
254	0x3f6895c12d7a69d7	0.003001096057983359
255	0x3f60afe2059fd23b	0.002036992501411453

b_1 f8 [128, 1]
0	0x3fca046823ff36b7	0.2032594848409894
1	0x3fe29aec527e6592	0.5814115153508956
2	0x3fd51aa0204a7324	0.3297500911083253
3	0x3fd0d1a9d4e17ad6	0.2627968386567948
4	0xbf80afb4e23a1f89	-0.008147633699323158
5	0x3fe7880d74408093	0.7353579779192095
6	0x3fcdd81b13bbbd82	0.23315752471487988
7	0x3fd783f8fbbd6e09	0.3674299677274751
8	0x3fd62387eaefaa66	0.3459186357783096
9	0x3fe2d75f90e7ff0a	0.5887906866264256
10	0x3fbb5ca3faab5497	0.10688233251433342
11	0x3fe86f4ded673295	0.7635869633464433
12	0x3fe0a25725663bdd	0.5198169451194833
13	0x3fbbccb3528f7177	0.10859223142273842
14	0x3fe2c7b0f5cd55eb	0.5868763733694186
15	0x3fd7228207b88904	0.36148119691837644
16	0x3fde10c803f2cd2c	0.4697742498930946
17	0x3fd38837a97da24b	0.30518905212241937
18	0x3fe706b3d187b107	0.7195681660064402
19	0x3fbfe376f1a49df4	0.12456458472717441
20	0x3fcce811ec29a717	0.22583221465475198
21	0x3fd6347814b7c172	0.3469524576494428
22	0x3fddedc0d95f3b61	0.467636310841888
23	0xbfb979507a63390a	-0.09950736034372568
24	0x3fe1e45372c74ce9	0.5591218225257794
25	0x3f9296b299e5b490	0.018152990954537318
26	0x3fd4223a8e72fe31	0.31458915625623535
27	0x3fe034ea03deceac	0.5064592433540915
28	0x3fe661fde30e482c	0.6994618830378889
29	0x3fe19a9bde28d535	0.5501231516888426
30	0x3fe2e46a96bd187c	0.5903828567613938
31	0x3fdea22ede819a3e	0.4786488697922414
32	0x3fda0bd234071298	0.4069715030748653
33	0x3fd86a3d959c1145	0.3814844094306589
34	0x3fe93c45458eacfa	0.7886072500745336
35	0x3fe8e53fa4a9db4d	0.777984449013141
36	0x3fe8fb9613092bf5	0.7807112094682213
37	0x3feba60cb78850d8	0.8640197357767887
38	0x3fe87d69bd7b72cb	0.7653092099022499
39	0x3fe7ad1f620eb03d	0.7398831286605013
40	0x3fe79ec5b0909d45	0.73813137517292
41	0x3fb7032764bdaff3	0.0898918744039177
42	0x3fe9c420c83a3913	0.80519141299172
43	0x3fdf5c90f98babe9	0.49002479905783375
44	0x3fe173c4cb5eb636	0.5453819248265919
45	0x3fc7b7cb1da6948e	0.18529643008983893
46	0x3fe2f3b91ee98ff0	0.5922513583905111
47	0x3fe0baa1e7d87d3e	0.5227822807536666
48	0x3fcac3eee7d441db	0.20910440749913914
49	0x3fe654d60f48c7a8	0.6978559778710762
50	0x3fa24af9e01be57b	0.03572827206330494
51	0x3fd83dc327da4d4f	0.3787696732699332
52	0x3fe53becf782e5a4	0.6635651430325891
53	0x3fe7e9e42496b142	0.7473011698362273
54	0x3fda6b66ac48fc01	0.41280524086681686
55	0x3fc9b20f605c0a74	0.20074646191649814
56	0x3fdf810383892434	0.49224937291416215
57	0x3fddee6e45ba9768	0.4676776581712745
58	0x3fe8bc9fba6922f3	0.7730253830751209
59	0x3fe56c4ff718f15c	0.6694717241403327
60	0x3fe491cdf5e7d519	0.642798404964796
61	0x3fde453c4538df6f	0.47297579536415574
62	0x3febcfc29247bdfb	0.8691113335643758
63	0x3fe78e9a26c40ad0	0.736157489504274
64	0x3fe55f214de4269b	0.6678625603974128
65	0x3fde765455d1fc79	0.4759722555244888
66	0x3fe72b876f79bfa9	0.7240636040933072
67	0x3fc5270d23f3bce6	0.16525425200914085
68	0x3fecbe18c532dd0a	0.8982051707779715
69	0x3fc3de346798ab0a	0.15521864946762093
70	0x3fea3e8a8f25ad75	0.8201344295352287
71	0x3fd142e826f3ad93	0.2697086696996049
72	0x3fe054ce12d2b2e0	0.5103521697652376
73	0x3fe0925b765d955b	0.5178658782794331
74	0x3fe8053101077562	0.750633718500165
75	0x3fd0bec1a4aea2ba	0.26164284784548963
76	0x3fdbc5732f8d6b9a	0.4339263882044918
77	0x3fd4a91c4e51253e	0.3228216900648312
78	0x3fdab773778f8a07	0.4174469630799255
79	0x3fd442a5367a3adb	0.3165677101141406
80	0x3fda9529f03a5779	0.4153542371726569
81	0x3fcb102ce990fdbe	0.2114311352215576
82	0x3fe324928f556869	0.5982144164547779
83	0x3fd25c539c5c290d	0.2868851687386645
84	0x3fe16b8d3b7cdbe3	0.5443788682813387
85	0x3fe24d16becf186f	0.5719102598893765
86	0x3fe00f24f30c1404	0.501848673535847
87	0x3fd53a4ca1265818	0.3316833089569413
88	0x3fd107df7673972b	0.26610552375346924
89	0x3fb812e81d8b0263	0.0940384933592298
90	0x3fe0cc6e62b8271e	0.524954979716515
91	0x3fd421876f141754	0.3145464501143256
92	0x3fd682cb69b2a876	0.35173306772288215
93	0x3fe7eea04a4173e3	0.7478791666322845
94	0x3fc7a1bb2ee073dd	0.1846231440439671
95	0x3fdf9b057e213379	0.4938367587790747
96	0x3fd7531db55b7278	0.3644480010096127
97	0x3fe9407361f5c4d0	0.7891175187379762
98	0x3fe7fbc25dcbb577	0.7494823295543672
99	0x3fb76e78caa21c24	0.09152941653347618
100	0x3fd5302fd63df06d	0.3310660927015821
101	0x3fe0ee2d8ae6af3c	0.5290744507706004
102	0x3fcd7f5b34d3060e	0.23044910506546085
103	0x3fe7cab135639ac1	0.743492702746913
104	0x3fd3a63fe7654e27	0.3070220718120446
105	0x3fe7f8202eeb58be	0.7490387836831116
106	0x3fd99c2da14948f8	0.4001573634206035
107	0x3fcf7722cd895e0f	0.2458232406231535
108	0x3feb96fcca126a34	0.862181086227173
109	0x3fe52c5fd1a5e003	0.6616667837797653
110	0x3fdb102ba7d14d1b	0.42286197079120463
111	0x3fc279ea64cc9020	0.14434556886510652
112	0x3fd81996311f83ab	0.37656168744256985
113	0x3fd4290d5a8b6719	0.3150056251739542
114	0x3fd40b858d7505b9	0.3132032281319784
115	0x3fd4874018db08c3	0.32075502803139616
116	0x3fa4e3e315cd5983	0.04080114022387973
117	0x3fe9917a939e81a6	0.7990086444079239
118	0x3fa0208c944fa708	0.031498330215823656
119	0x3fe652ad67340faf	0.6975924506846151
120	0x3fd7b0d099580ddf	0.3701669213771463
121	0x3fd5eeab8fd58060	0.34269227072036834
122	0x3fe3461a86e5e6bf	0.6023075709083158
123	0x3feb20962fdccdb3	0.8477278647246095
124	0x3fe8f7010d478ce1	0.7801518687596422
125	0x3fd6460a64ed1997	0.3480249391181131
126	0x3fe43f2346504812	0.6327072499573225
127	0x3fc31aadbd9f46b8	0.1492516685380474

w_2 f8 [64, 128]
0	0x3fafc0312379fd94	0.062013183193808136
1	0x3f942cace8e9f4df	0.01970167323678573
2	0x3fb72c3edb5db1b6	0.0905188832818514
3	0x3fb9dac842033934	0.10099460231433427
4	0x3fbbd7199871120f	0.10875091525765178
5	0xbfb1d6e639f081f5	-0.06968535341776046
6	0xbfad8d15b23ac173	-0.05771701622632266
7	0xbfc3411452acbc9d	-0.15042356526234793
8	0x3fb04a095f8562b7	0.06362970907265263
9	0x3f927ac757f8b6fa	0.018046488518101512
10	0x3fbbfdf5f29f3121	0.10934388326058243
11	0xbfa3dd5b51ad8d46	-0.03879819271130684
12	0xbfcd9e33636a5131	-0.2313904033113743
13	0x3fcd72c3f500b227	0.23006486380599364
14	0xbfc44d56ab8d9b5e	-0.15861018540018795
15	0xbfc2f51c1c9e9850	-0.14810515782773104
16	0xbfce464e458874e4	-0.2365205611721769
17	0xbfa973a5fe50e8ba	-0.04971045236057266
18	0x3fb26688385264c2	0.07187701582951703
19	0x3fb48f654983b047	0.08031304402146687
20	0xbfa51d1c7bb99597	-0.041237726309911675
21	0x3fb91d1d25e092c1	0.09810049223649299
22	0xbfb4c3dd3bc8f41e	-0.08111365041345706
23	0x3fb02980d8822b51	0.06313329015590098
24	0xbfb579c536bfa74e	-0.08388931833874588
25	0x3fbbb63ac3bbc316	0.10824935225151608
26	0x3fb79fdfa28b9620	0.0922832271422398
27	0x3fb996da77528e40	0.09995808995386657
28	0x3f62fa760073e48b	0.0023166947099722605
29	0xbf91c1dcfeafdd0a	-0.01734109215246086
30	0xbfba6943183c3e29	-0.10316867200548842
31	0xbfbab28da816abd1	-0.10428700784420576
32	0xbfc2fce28a76b268	-0.14834243546410453
33	0xbfcf00271424a1b7	-0.2421921585421509
34	0x3fc2d4403974aafc	0.14710238271194231
35	0x3fad9b7187daf2f5	0.05782656463040851
36	0x3fb6d3cbcd8d86da	0.0891692520940767
37	0x3fb3ea36065d04ec	0.07779252677302723
38	0x3fb180235df17b42	0.06836148303544312
39	0x3fd1bfe5b4c69b9d	0.2773374810589589
40	0x3fa92adfae77d468	0.0491552257989632
41	0xbfbd444faf94bc89	-0.11432359730382492
42	0x3fa5ab106c1bf22e	0.042320740887565086
43	0xbf8adeddab12d787	-0.01312039545369338
44	0xbfc72567e71721ce	-0.18082903655728305
45	0x3fb55a291b52a39b	0.08340699116764798
46	0x3f565eb48738fea8	0.0013653529139360607
47	0x3fc659d9e1154909	0.1746170376814649
48	0xbfb90a19fce2ca44	-0.09781038688633098
49	0x3f9ef4d7676adccc	0.030230870902155968
50	0x3fb97a9c461eddde	0.09952713691642809
51	0x3fca002ab8f08a49	0.20313009290937803
52	0x3f9cfb1a3b63444c	0.028301629900685563
53	0xbf8c5d39cf6738c1	-0.01384968914217344
54	0xbfc1c3bff1e72ce9	-0.1387863093535551
55	0x3fb4aaea3d3419e7	0.08073295587755745
56	0xbfb6e978071ec319	-0.08949995206672802
57	0xbfc35f0bdd3011aa	-0.15133808422264156
58	0x3faeac40eb087a4e	0.05990794056946368
59	0x3fa9cfee7e7cca6e	0.05041451734577583
60	0x3fa4cb1c81eab709	0.04061211667918314
61	0xbfa59034e3c8c6af	-0.04211583405084462
62	0x3fcf93271ee5a95e	0.2466782475342581
63	0x3f9271a33f878de3	0.018011618378194327
64	0xbf9a619d7818f5dc	-0.025762997107667704
65	0xbfb48651bdce39d4	-0.08017454990315481
66	0xbf83b844ccdfffe0	-0.0096288085005653
67	0xbf80a98e0d546bec	-0.008135900289337493
68	0x3f76bed2f3e61201	0.005553077730273249
69	0x3f81d5112f4f4f90	0.008707174545555835
70	0x3fd2c53445f8a371	0.2932863887131623
71	0xbf8f55b24cefc0b3	-0.01530017182628316
72	0xbfc133ae21a29764	-0.1343896545633313
73	0xbf9ca880f3911995	-0.02798654066671132
74	0x3fb2877434c47326	0.07237936294809497
75	0xbfbb222c241262a1	-0.1059901798311196
76	0xbfc4298f593fb74a	-0.157518309191284
77	0x3fb6c6652344eac0	0.08896476851524948
78	0xbfd55602478aefb4	-0.33337456690400846
79	0xbfbee06b7d5c9796	-0.12061187563503348
80	0xbfb803d16f28f0fb	-0.09380825961938292
81	0x3fb854f26f9c137c	0.09504618859143749
82	0x3fac665cd509b93a	0.05546846485673247
83	0xbfc2df082fc505fd	-0.14743139584065537
84	0x3fa3252194a7915c	0.03739266337996369
85	0x3f9988c546f4cd5d	0.024935800987078028
86	0xbfb8ba25b0b0e4d5	-0.09659038127655901
87	0x3fb007b5f24dc90c	0.06261765637990296
88	0x3f9d977d3823f75e	0.028898197700065402
89	0x3fb7efe767446bbc	0.0935043933026653
90	0xbf90b8579dd8284f	-0.016328209885650143
91	0x3fd5e2c712e5437f	0.3419664082076039
92	0xbfc82fc33eefc62d	-0.1889576012904838
93	0xbf7f4eb170d6bfad	-0.007643406990084073
94	0x3f85243bf603c72a	0.010323017545008268
95	0xbfa2008f2a0705f1	-0.03516051662473874
96	0xbfc331ca7ab37473	-0.14995699874171783
97	0x3fb84e18b520a4d4	0.09494165823038553
98	0xbfb4fef69f92eb5d	-0.08201543231818449
99	0x3fa691a173016477	0.04407982376933089
100	0xbfb4156f2136641e	-0.07845205841876221
101	0x3f971bbd6b4a7bb2	0.022566756890792745
102	0xbfc25099e49577e2	-0.14308475171395602
103	0xbf926d42c80f2b37	-0.01799492212357309
104	0x3fa67245870b6c08	0.04384057305806982
105	0x3faffd1b98f21f71	0.062477934284344346
106	0x3fa33a671f08b30e	0.03755495313484945
107	0xbfb1ffc2c1b88401	-0.07030884961615415
108	0xbfb6b9da09651944	-0.08877337197654805
109	0xbfa9a19f095ab6d4	-0.05006119717778082
110	0xbfb262881a38b080	-0.07181597366496995
111	0x3f96550bb721f22c	0.021808798840071628
112	0xbf94f09a630607d3	-0.020449077886503474
113	0xbfb4c61f0abc0465	-0.08114809047767009
114	0x3fbab0531e59d976	0.10425300112715327
115	0x3fa93c42d02b972c	0.0492878798593622
116	0x3fa28c991693a904	0.03622892761798549
117	0x3fb81b8d4cd0f107	0.09417040944476095
118	0x3fb460cf29b32eb7	0.07960219162049041
119	0xbfacd2d204852fad	-0.05629593186549129
120	0xbfd07839e3a81eec	-0.2573380206308531
121	0x3fbe75da2ce4f7e1	0.11898578258566729
122	0x3fc32bc88d36aacc	0.14977366347496568
123	0x3fceb2a8b905d104	0.23982724222481278
124	0x3fab00485ec327a9	0.05273653179899835
125	0xbfc14aa93af6336b	-0.13509097460737549
126	0xbfb0673e8edfa4ec	-0.06407538402676821
127	0x3fc0996d33cdb7d2	0.12968220738861064
128	0x3fb6d912a232e9a7	0.08924976787503756
129	0xbf91a2f66b981ae1	-0.017223215405489326
130	0xbf719451c26c0162	-0.004291839001553251
131	0x3fbcf3cc3c94d059	0.11309505919490571
132	0xbfab9b17ad479d46	-0.05391763677817578
133	0x3f84420e06dbfe72	0.009891614517527379
134	0x3fb3722a4b6d98c3	0.07596077291018148
135	0xbf8ee9d788412aa5	-0.015094455571803176
136	0x3fc5e5aff85bedb7	0.17107200266751274
137	0x3fa023fd232c5c0a	0.03152457289086648
138	0x3fbafc32468ee801	0.10541071150410632
139	0x3f5795ea43e9bd87	0.001439551138584823
140	0x3fb5d3e582767d27	0.08526453433158974
141	0xbfb8ccfda0021594	-0.09687791019867681
142	0xbfa4be4ebd9e81ef	-0.040514431616660455
143	0x3f9cf9185800a632	0.02829397236943105
144	0x3fb5a837f0681ccb	0.08459806079200687
145	0xbfc1c1fb2137518f	-0.13873232957724865
146	0xbfb28c23cb4a6a3c	-0.07245086396361783
147	0xbfa9f7dbddedc629	-0.050719137993734904
148	0x3f9dfd0db54d3357	0.029285635176438642
149	0x3fbf7e484e16d739	0.12302066713786254
150	0x3fa6f6e8f7e113bd	0.04485252405041915
151	0xbfc01b888ede8153	-0.12584025360139126
152	0xbf6b2f714580a3b0	-0.003318520768534637
153	0xbf94152efae1587f	-0.019612058699145948
154	0xbf9daebaf50660a8	-0.02898685570252782
155	0xbfc061ac443744cb	-0.1279807408414285
156	0x3f672dec6f7443d5	0.0028295152548101035
157	0x3fa25b50e0b5b788	0.03585293524780214
158	0xbfa62ca8865ab748	-0.04330946579044209
159	0x3fa7bdcd602cb562	0.04636995123869771
160	0xbf6a25ce8a098667	-0.003191855809107125
161	0xbf83ef1c4e4f8303	-0.009733410968637118
162	0x3f9a122a218615fa	0.025459917350891793
163	0x3fa54c2c0a19b460	0.04159677146240237
164	0xbfa0ecd9b538f3e6	-0.03305702531040548
165	0x3fb741dbb424b03f	0.09084866664915213
166	0xbfc0e80e94db2ee5	-0.13208181637161612
167	0xbfbbeb431fd3ffd6	-0.1090585663514497
168	0xbfc60a7f76fc264c	-0.1721953707677123
169	0x3f842480c757b196	0.009835249026729536
170	0x3fb179d79cb9f895	0.06826541496590928
171	0x3f9c938c85afe99f	0.027906604442230806
172	0xbfa727b8e8be5b79	-0.045224932108957235
173	0xbfc3414c3c1430f0	-0.1504302304605356
174	0xbfc1163f88f33fc5	-0.1334914606763943
175	0x3fb32f041e588f13	0.07493615856997975
176	0x3fb242e9cedcaa9f	0.07133351612416526
177	0xbfb99e5f2c95b197	-0.10007281149382262
178	0xbfbcc2d5a2bd1b53	-0.112347938758018
179	0x3fc841efd0496b17	0.18951223058942254
180	0x3fb795b599ff9193	0.09212813386654366
181	0xbfa9b6b8dfe48861	-0.05022218449654826
182	0x3fbc3f1222b1d450	0.11033738467252019
183	0x3fbd733da0386782	0.11503968392972122
184	0x3f9b4e30d0dffdb7	0.0266654613005792
185	0xbf9961b3a9f9ff85	-0.02478676533655701
186	0x3fab6f231bc6a68e	0.053582284107801845
187	0x3fa71deae24a3dc7	0.045150127528468746
188	0x3fa1471c81623bfd	0.03374566153899392
189	0x3fae99dd17dbb6d8	0.0597676364539958
190	0xbf9546f3f3be9906	-0.020778476478562367
191	0xbf9f05690c0d1a7f	-0.0302940763097248
192	0xbf7a2fd821909ab4	-0.006393284094008567
193	0x3fb7d39cae64f6ff	0.09307269342113143
194	0xbfb7fa0b8bc7c5a7	-0.09365913546186865
195	0x3fb3519e13c5139d	0.07546413405095938
196	0x3f942be8d4da90d4	0.019698751441539056
197	0xbfb96a44392c6102	-0.09927774806817882
198	0xbf9a73efe4de1620	-0.0258328898849155
199	0x3fb37db83d95c82b	0.07613708022634628
200	0xbf94b63bb5576e6d	-0.0202264146263204
201	0x3fa5b3ba2bcd59a6	0.042386834952299154
202	0xbfb5ebe1ce81377c	-0.08563052455539649
203	0x3fbfacc1bcb941b3	0.12372980935584259
204	0x3fb5ad6c41062335	0.08467747294902213
205	0x3fb7d904116bd8ec	0.09315514970134914
206	0x3fb16e17ea65b5db	0.0680861422785805
207	0x3fa56237132b1465	0.0417649470232753
208	0x3fb4dae606b7d8b2	0.08146512664811459
209	0x3fb8fc5b1449c745	0.0976006435901385
210	0xbfc43eb8ba4899a8	-0.1581641110980858
211	0x3faa2b3377157947	0.051110847746473946
212	0x3fa36915ed73f61f	0.03791111491771581
213	0x3fa581e3a6050c7d	0.0420066013489526
214	0x3f6a5088871f75b0	0.0032122294005449623
215	0x3fbcefcf8b9b7058	0.11303422125223628
216	0x3fbd9f125741b74c	0.11570849066057781
217	0xbf99a9fce34d13cb	-0.025062514661175855
218	0x3fad1badbb811c48	0.05685179628249465
219	0xbfc3dcf04ae68b5e	-0.15518001229528527
220	0x3fc24140f1cd2394	0.14261638457017212
221	0xbfb42373084f0600	-0.07866591408585322
222	0x3fb1b7c254048dc9	0.0692101912614397
223	0x3faabb7eea39a31c	0.05221172913736025
224	0x3f93b81d8972ef4d	0.019257031931132308
225	0x3fa5031ccadee12c	0.04103937126586951
226	0xbf98b94b6d3b4515	-0.024144342939341607
227	0xbfb3e773c0b11487	-0.07775042967212374
228	0x3fc43dd065374fc2	0.1581364149302527
229	0x3f98f18c890b11e5	0.024358936180549313
230	0x3f91c40dd7587cde	0.017349449413924904
231	0xbf995a21c2506210	-0.024757888302788855
232	0x3fb909611a586f4a	0.09779936688613336
233	0x3fa947be6d63d4b3	0.04937548718764031
234	0x3fbeca9417a2296a	0.12027860238064184
235	0x3fab27c2a9b11aae	0.053037722791989025
236	0xbfaeb0f25581323d	-0.05994374555357183
237	0xbfba928aeda6fa34	-0.10379856397683157
238	0xbf9b833c9e7a86a5	-0.026867816136138107
239	0x3fb3970b8fcdf754	0.07652351628163717
240	0x3fbd8529366b33a5	0.11531312540610246
241	0x3fbbd7f24069bf60	0.10876382896981118
242	0x3fc140b889fd2b27	0.13478762376538464
243	0xbfc1d6b9d2fd2e67	-0.13936541368672126
244	0x3fb36e5bc358de5b	0.07590268630235057
245	0xbfa2352573284234	-0.0355617240021541
246	0xbfb71de367694b04	-0.09029980921449626
247	0xbfb1646b481585b5	-0.06793852338662172
248	0xbfadd6b73197d061	-0.05827877502807222
249	0x3fc2878a34d97bea	0.1447613485388211
250	0x3fa84b0fd1df4dff	0.047447676057029035
251	0xbfb7fc56b9c92488	-0.09369413409980798
252	0x3fa95f82e20badf6	0.04955681809755312
253	0x3f9db4036d02d669	0.029007009056576303
254	0xbfc076053072c115	-0.12860169282567627
255	0xbf9cb4aebd013303	-0.028032999311380823

b_2 f8 [64, 1]
0	0x3fe0cb3e1d3a1ac6	0.5248098917807844
1	0x3fd28e32d3164cb0	0.28992910970664365
2	0x3fd8a0cbe9d39d4f	0.3848142417395665
3	0x3fe397db8a2d7445	0.6122873019008997
4	0x3fed7844a7d7b678	0.9209311750580147
5	0x3fec010335faf286	0.8751236013700499
6	0x3fe0f4e0cd2fc240	0.529892349963184
7	0x3fe0f4e5241b58f3	0.5298944192134328
8	0x3fed850e1b315cbc	0.9224920779332915
9	0xbfb6c6323e0e4c5d	-0.0889617349151179
10	0x3fe97aac3584e396	0.7962246938032986
11	0x3fc4b68c165aa332	0.16182089892870405
12	0x3fd6b3f85c846556	0.3547345069396973
13	0x3fd1226cee974ad4	0.2677261667242139
14	0x3fe25b606d7f8954	0.5736543787609585
15	0x3fd2559a04d56998	0.286474709244112
16	0x3fe01e5574395005	0.5037028570172885
17	0xbfca6df7c3ccaec6	-0.20648095188641075
18	0x3fd9973c062f7111	0.3998556194690233
19	0x3fe910244525187b	0.7832204199301168
20	0x3fdd1f2000dd0a20	0.45502472004241845
21	0x3fe934e1c57f10ac	0.7877053124762106
22	0x3fe12a82a6ed4c0f	0.5364392528812248
23	0x3fedc281a4f01947	0.9299934598391609
24	0x3fde6a58bb3e4f47	0.4752408817814637
25	0x3fda91cc1a31e583	0.4151487594422962
26	0x3fd47224bca6ea0d	0.3194667665772222
27	0x3fde08c858732a2c	0.46928604734117374
28	0x3feccd06832bd61d	0.9000275194109154
29	0x3fe73274234eb261	0.7249088945005263
30	0x3fc287c2587b6935	0.14476804085172437
31	0x3ff06398a88f4470	1.024315508304678
32	0x3fded7e61b1ff47f	0.4819274201289047
33	0x3fd035f1ebbb1155	0.25329254170016685
34	0x3fed6618264b546b	0.9187126872954087
35	0x3fdcb737aa5f4ee1	0.4486827052871672
36	0x3fc37ae0eaa6464b	0.1521874566793023
37	0x3feb07f816142877	0.8447227889275969
38	0x3fe42bbeee2d3c15	0.6303400661362298
39	0x3fcc819db5b471eb	0.222705568049505
40	0x3fe7a11220996f0f	0.7384119641023704
41	0x3ff1d6cd113d96b9	1.1149416612110328
42	0xbfba2bcfc98b219d	-0.10223101301665456
43	0x3fdb0932d1a292f1	0.4224364325730639
44	0x3fe1a61bc8fcef78	0.5515269208476488
45	0x3fe66a65c3e248c3	0.700487978540217
46	0x3fd4fbb8b49f000e	0.3278638614538075
47	0x3fcabdf0f47d4903	0.20892154634436375
48	0x3feadbe3d2410b53	0.8393420321011525
49	0x3fe786ad4525c578	0.7351900435007073
50	0x3fd5c608612cfd96	0.3402119587880973
51	0xbfc4790d807d4299	-0.15994423650638082
52	0x3fec72a8bed5a85a	0.8889964797247203
53	0x3fe7655b973e624d	0.7311227754572173
54	0x3fed29e07516c86a	0.9113619124311871
55	0xbfb1d00155e67cdc	-0.06958015772987686
56	0x3fe0e971a71d231d	0.5284965766851176
57	0x3fc2b00324023449	0.14599646814568448
58	0x3fe76cb0c832b73c	0.7320178899878793
59	0x3fd46224bad71022	0.31849020238974124
60	0x3fd4eef9ecc2ac28	0.3270859539140383
61	0x3fe900d25e78eb44	0.7813503117716682
62	0x3feec2e732e0230d	0.9612918847716131
63	0x3fef7710adb19201	0.9832843201116362

w_3 f8 [10, 64]
0	0xbfcf56fc07fc524f	-0.24484205617831598
1	0x3fb76933d6f8b072	0.09144901274038533
2	0x3fa99cc99a06e71d	0.05002431874477351
3	0xbfc2a88897c0b8df	-0.14576823625379284
4	0xbfe08cd22abea537	-0.5171900591714466
5	0xbfd168fdc8e01cb4	-0.27203316323034277
6	0xbfd3d22846e2d653	-0.3097019855734732
7	0xbfd21246cbef8168	-0.28236551204283566
8	0xbfd27ad24f8dd320	-0.28874643105455
9	0x3fe9e9337b91b1a6	0.8097169316729846
10	0xbfdd9c3d9f0c42fd	-0.46266117603322227
11	0x3fd19392f8c21002	0.2746322087552927
12	0x3fcba28f3f7bda8b	0.2158984241466054
13	0x3fbbec6b9ae3dd94	0.10907623797890259
14	0xbfd3275fab8f86c7	-0.2992781806370712
15	0x3fdd2f29be74f902	0.4560036048823265
16	0xbfbc5319ab8398fa	-0.11064300954203424
17	0x3ff23d42ec92a673	1.1399564019324344
18	0x3fd265f9e3cf2b40	0.28747412917134696
19	0xbfe03607607222dd	-0.5065953143794918
20	0xbfc60c625cc4c8b3	-0.17225293664666239
21	0xbfe53f86660fd426	-0.6640045159716734
22	0xbfcc316ba3c800ee	-0.22025819298870125
23	0xbfd9ff18cec3c10c	-0.40619487945424804
24	0xbfc249497212da92	-0.1428615386009438
25	0xbfcc2a88a2a5c177	-0.22004802648326535
26	0x3fd24050af1c8f2d	0.28517548657167674
27	0xbfccdc92be4942cf	-0.22548136035267993
28	0xbfcd8e70f5018ae4	-0.23090946162400094
29	0xbfcd1b32620ef73e	-0.2273924807358813
30	0xbfc6f042d4776571	-0.17920718550048378
31	0xbfd176c63fab235c	-0.2728744146120812
32	0xbfce69dc1fb5ea10	-0.23760558651322627
33	0x3fbdd07d936c8a69	0.1164625630304187
34	0xbfeacb3bd233b330	-0.837308798361482
35	0xbfb6c85711eee18f	-0.08899444759197749
36	0x3fce280f03e77225	0.23559749308232472
37	0xbfe0158573659ed5	-0.5026271108481192
38	0xbfcdfb5090cb1520	-0.23423201627716939
39	0x3fbc6b0813e45bb0	0.11100817189831846
40	0xbfe47be0094c2629	-0.6401214772788012
41	0xbfdbc1c66a6a40bb	-0.43370209114165065
42	0x3ff1f736336bae06	1.1228544243448382
43	0xbfc318cedd7cf3b1	-0.14919458212707817
44	0xbfd588a66ee3fdf5	-0.3364654620090442
45	0xbfe46fdef76cae84	-0.6386561234007364
46	0xbfc106d3c0911b37	-0.13302084829975921
47	0x3fe0633fd28a17e4	0.5121153938387093
48	0xbfd2bc3337e0014f	-0.29273682076020163
49	0xbfddf8c39284aa18	-0.4683083468286511
50	0xbfdbc558643e8fcc	-0.43391999997606656
51	0x3fe92dacf28bea51	0.7868256318318548
52	0x3fa8063bd134c653	0.04692255905900979
53	0xbfe1ab60df6e66e2	-0.5521702159778352
54	0xbfd2b162d3b9ae12	-0.29207678486156496
55	0x3fe844580edc0d05	0.7583427705980347
56	0xbfd153e0e30513fc	-0.2707445351591671
57	0xbfa06189a635f617	-0.03199415353718054
58	0xbfc52da5a12f85e7	-0.16545553560631207
59	0x3fd177d7e261b6c1	0.27293965442263973
60	0x3fb1fd5a9c19f11d	0.07027212439601667
61	0xbfd639098fe57ad9	-0.347231283687433
62	0xbfd69136373fc70f	-0.35261302371428455
63	0xbfceb9b6e9ddf845	-0.2400425569466639
64	0x3fd9bb8052b2bbf0	0.4020691688155571
65	0xbfc5e1628e5ebd2d	-0.17094070388473295
66	0xbfb272185de6d0d2	-0.07205345432777513
67	0x3fe751a20592ba04	0.7287149533129313
68	0x3fb5dfc889cd4629	0.08544591297438643
69	0x3fd6fe60fdc90fcd	0.3592760542271634
70	0x3fd2ad50319437c6	0.29182820169159773
71	0x3fdd093151c38d24	0.4536860750651661
72	0x3fcaebbeac0711af	0.21031936073098964
73	0xbfecdc0d4045150b	-0.9018617873449853
74	0x3f9d632a78593ce6	0.028698600383276672
75	0xbfd56b13d6a78664	-0.33466049158423616
76	0xbfb5b4fbbe86da78	-0.08479283715755936
77	0xbfcd12def5d86953	-0.22713839534919575
78	0x3fdf568c70bbadc6	0.4896575070294741
79	0xbfd0062f2d0cc751	-0.25037745856672183
80	0x3fd411e86122c6db	0.3135930012314085
81	0xbff35c8e5e2c7519	-1.2100967100771582
82	0x3f687a0d88bb3c06	0.0029878868425394804
83	0x3fe4613a5474d085	0.6368686341798059
84	0x3fc2b37b54c39127	0.14610234869827218
85	0xbfcf8d95813466aa	-0.24650830086539105
86	0x3fe0cf8b970dccde	0.5253351164123179
87	0x3fe1805a4c2185c7	0.5469180571491784
88	0x3fd5873ca8bb2dc1	0.33637920835164087
89	0x3fc67175b114f182	0.1753375162751461
90	0xbfcc55155e456278	-0.2213465414340765
91	0x3fd6cc73368341f4	0.3562286407805282
92	0x3fde7b1cdf5c4df5	0.47626420795970087
93	0xbf85f80c94cb5bf9	-0.010727022448390843
94	0xbfdce8bb55bc35be	-0.4517048203714146
95	0x3fe146a58df07d4f	0.5398738643888609
96	0x3fdaf3ac940353c3	0.4211226888122008
97	0xbfd48dd5f8ac0c43	-0.32115697178250374
98	0xbfb277348ed89984	-0.07213142859891347
99	0x3fc6fdfbdbd6af6d	0.17962597116763437
100	0xbfdc745213169cf8	-0.44459964622588144
101	0x3fb9afa092d7bbfc	0.10033610901858475
102	0x3fe95fe93a3c1057	0.7929578912158018
103	0xbfd35212ccb8db07	-0.3018843650092297
104	0x3fe0c4157db3ded6	0.5239360289696957
105	0x3fd8a3a8d2cfe80d	0.384988981124139
106	0xbff01a20261f159f	-1.0063783158414947
107	0x3fcb9dc57455ca79	0.21575229816842859
108	0x3fe0d993cd2f7362	0.5265597350622608
109	0x3fde738c7978c2a7	0.4758025346991794
110	0xbfb0b49daf3ea3a7	-0.06525598076281246
111	0xbfd0cd32d669caa8	-0.26252432764810374
112	0x3fd94f4be505861c	0.3954648720301479
113	0x3fd7e7b5e1280545	0.3735174845497407
114	0xbfc2f9cdc50ea36e	-0.1482484066193836
115	0xbff12a57effaf34f	-1.072837769911718
116	0x3facb360cbf73a85	0.05605604638877985
117	0x3fe01d55d5412b1a	0.5035809674385263
118	0x3fcecae8884e2a9d	0.24056727080854481
119	0xbfe9d927c3330de6	-0.8077582180489429
120	0x3fe0d7ed8fc72fcd	0.5263583954015246
121	0xbfd198f2dfaf9ead	-0.2749602493699779
122	0x3fcf26ff9bf63ff5	0.24337763896301082
123	0xbfcb8104296a35ab	-0.2148747637005902
124	0xbfba71ad3c756113	-0.10329706884420302
125	0x3fdcccd3c9e838e3	0.4500016662358474
126	0x3fd0544f455168e6	0.25514585275017365
127	0x3fe35d84644f7c5e	0.6051656684102331
128	0x3fe7709507030dc9	0.732492936797308
129	0x3f9d30622aa0c0ad	0.028504880763819674
130	0xbfc9484836c74155	-0.19751837420200027
131	0xbfaa70cc90bdbf70	-0.051641838711360744
132	0xbfe33d021d821645	-0.6011972977000332
133	0xbfd1f52ca06f3d69	-0.28058925311503075
134	0xbfd9bd9a6fb2721d	-0.4021974650184193
135	0x3fe1cf11fc977086	0.5565271314076348
136	0xbfd2a4c4bd81d585	-0.29130667215880407
137	0xbfc0c10caecc75df	-0.13089140448657496
138	0xbfc2623361cfe1d9	-0.1436218478772975
139	0xbfd0b34116045e8e	-0.26094081068138386
140	0x3fcded32cd7f1839	0.2338012221718502
141	0xbfd07b114da14fa9	-0.2575114496332796
142	0x3fe2b9b84ccb3f4c	0.5851708888894591
143	0x3fd031f2488bf7d6	0.25304848751681897
144	0x3fcf04df8c4e172b	0.24233621931869584
145	0x3fd789f754f7a39b	0.3677957849272901
146	0x3fd25cc843cc2f82	0.2869129812322556
147	0xbfe25569534c1d5d	-0.572926199617466
148	0x3fe60510ba901aa8	0.6881183284575245
149	0xbfdec23be1daa46c	-0.48060509735166224
150	0x3fd28b859814d362	0.28976573802656536
151	0xbfd89a0e50b16f6e	-0.38440282707391915
152	0x3fc4e67a86ed4b3a	0.1632836493323227
153	0x3fbba6869f63cff3	0.108009733117626
154	0x3fd6b779aae7e3f1	0.3549484414102713
155	0x3ff16c654f11064a	1.0889638031516307
156	0xbfd26413ab9bcd04	-0.28735820540096335
157	0xbfdee8ee3ebc33e1	-0.48296695829850306
158	0xbfdab7794c4af3b2	-0.4174483532950105
159	0xbfc1d10f955527d0	-0.13919253150589705
160	0x3fd9a97ee5dca388	0.40097019622276564
161	0xbfd33c2e58b1fdef	-0.3005481592335561
162	0xbfc9240bd497f4c3	-0.1964125431112845
163	0x3fdc183db62abffe	0.43897955693955726
164	0xbfce90bb04018bb1	-0.2387918252526027
165	0xbfe5a87a7724e53f	-0.6768162085565236
166	0x3fd514f6c8b6d67b	0.329404541025134
167	0xbfb13cbba15a36c9	-0.06733296098010579
168	0xbfe3b058faac7ea1	-0.6152768035862729
169	0xbfa6fb8b66fe3761	-0.044887882540122666
170	0x3fdc696984a4ab49	0.44393384889069815
171	0x3feb426cdd391436	0.8518585510979679
172	0x3fe6801f9b72fd2a	0.703140071498557
173	0x3fd96c7fe88aa8a7	0.397247292605821
174	0xbfe06f99b73ad99f	-0.5136231020649581
175	0x3fd2e4d4739c8195	0.2952166680352318
176	0xbfd6abe78c065ffd	-0.35424221681887486
177	0xbfd8bd9324a6591c	-0.3865707261951614
178	0xbfd9fb92a96c769a	-0.4059797911194011
179	0xbfe0a22cc328d7cc	-0.5197967349729367
180	0xbfc4db844436b082	-0.16294911700004283
181	0x3fc24a92a9503065	0.14290078418014499
182	0xbfe52fbaf3af0a5b	-0.662076450295284
183	0x3f98951a2a140278	0.02400627977204059
184	0x3fd869051f841f64	0.3814099128508046
185	0xbfc907e9ab6c0f51	-0.19555397863598015
186	0xbfe51beb789e7803	-0.6596581798401079
187	0x3fd8af8cb2749182	0.38571469714431583
188	0xbfc42dd16663e256	-0.15764825343628058
189	0xbf9d250cbfd3ff05	-0.028461646278628034
190	0x3fe0571227d04517	0.5106287744148713
191	0xbfd3aae193bed85a	-0.30730475834150683
192	0x3fd8642e39010610	0.38111453596874956
193	0xbfd1bd47c4778338	-0.27717775522437504
194	0xbfd78c9f73aa42e5	-0.36795793815058025
195	0xbfe3cda2a5566259	-0.6188519696471061
196	0x3fd854ce1881f3f4	0.38017609017680276
197	0xbfc9dddab7aaa1d9	-0.20208295791714084
198	0x3f9eee72e790d09e	0.030206485160491618
199	0xbfb731063b19b028	-0.09059180205230233
200	0xbfcfc60d449da3e8	-0.24823156214122766
201	0x3fcad052e822a719	0.20948253950819476
202	0xbf916329d7bb4ecb	-0.01697984103414178
203	0xbfccdd48ddd60f17	-0.2255030711349881
204	0xbfd2889bfcc0d336	-0.28958797152454296
205	0xbfd9c22e9805b77b	-0.4024769291489673
206	0x3feb146a7ac677fd	0.8462421796755276
207	0xbfd0fad0ea1bb19d	-0.26530859815718505
208	0xbfd10f873e07ee3a	-0.2665727716227796
209	0x3fd721bfc3e88bbe	0.3614348805587574
210	0xbfdc12e1707abc17	-0.43865238174743254
211	0x3fded6f2fbda7cdc	0.48186945529046254
212	0xbfc612fef95b1d3e	-0.17245471168119225
213	0x3fe061c61f578679	0.5119352924486541
214	0xbfc392298d2a7561	-0.15289801972259467
215	0x3ff10123b69a6d85	1.062778199476129
216	0xbfda933eb4d16610	-0.4152371183205057
217	0xbfcc888039e146c3	-0.22291567636653128
218	0xbfc8df22e9b919ce	-0.19430958187349606
219	0x3fee2b75bb66dad8	0.9428051624480203
220	0xbfd091af0e7df5d7	-0.25889183440434976
221	0x3fd006da00a2baec	0.250418186779753
222	0xbfe0e07c7a044a08	-0.5274031050815333
223	0xbfcfe2788eef6ff7	-0.24909884433043292
224	0x3fc09f2372397b83	0.12985652043695603
225	0xbfdba206d3ad9dd8	-0.4317643229646513
226	0x3fc8003bf94bf33d	0.18750714943589655
227	0x3fc18ad2fcba8e8c	0.13704907741804495
228	0x3fbf5ab916da9920	0.12247807319599646
229	0x3fd5c667a9ed8493	0.34023467630874754
230	0xbfe16be411b7c8c2	-0.544420275311744
231	0xbfc5fe0b6092f873	-0.17181532111675643
232	0x3fbfd02d22accda9	0.12427026840742052
233	0xbfc58db78110a41a	-0.1683873539161887
234	0x3fe1f1c19c4b5bf0	0.5607612660049863
235	0x3fe43c15213b44f4	0.6323342942288535
236	0x3fd38a891aa558b0	0.3053305397237507
237	0x3feb30f2749e7bec	0.8497249868122458
238	0xbfe5df6f4533f73e	-0.6835247375126767
239	0xbfc57c4e37c962b9	-0.1678560039897741
240	0xbfdcaba60fa2a6bb	-0.44797660376444143
241	0x3fc003badb61ca95	0.12511382781993477
242	0xbfd71763b381d833	-0.36080257921219355
243	0xbfa4e08ee8a6a765	-0.04077574338891913
244	0xbfd68740cc2a3858	-0.3520051950262135
245	0x3fe9c7f252f208f6	0.8056575412777238
246	0x3fe2b9c3d7a8e866	0.5851763927560227
247	0x3fd0511952f18706	0.25494988536785035
248	0x3fd2efa41f85b1fb	0.2958765323481029
249	0xbfb3992755687479	-0.0765556891933147
250	0x3fea5a0c84527805	0.8234922966400978
251	0xbfd720d9fb801c26	-0.36138009605969257
252	0xbfd6945c122e9374	-0.35280515456752615
253	0x3fe73fac017a8463	0.7265224484327856
254	0xbfe42061257a452e	-0.6289525730118493
255	0xbfd0e9e36c59b1bd	-0.26427541333285004

b_3 f8 [10, 1]
0	0xbfce37b2ddaf9344	-0.23607478928092906
1	0x3ff3ca72b925d5a1	1.2369258148513398
2	0x3fedf0ab71fb1798	0.9356286264598905
3	0xbfc9556b5c3a6b1b	-0.19791929248170778
4	0x3fee60504bf1b543	0.9492570384297
5	0x3fec0afb730eb497	0.8763406035628972
6	0x3fe2b9f0c08dc8da	0.585197807389956
7	0x3fcaad6d92346e9d	0.20841760291010739
8	0x3fbe0121b810989c	0.11720476859827261
9	0x3ff0c98ddefbfded	1.0492075643850243
